models/mnist_net.pth (torch_old, 179241 bytes, 10 tensors)

conv1.weight f4 [6, 1, 5, 5]
000000 1b de 57 3e d1 e2 31 3e c4 1a c6 bd 0d fb 17 3e
       0.2108082 0.1737168 -0.09673074 0.14841862
000010 90 3a 27 be 5d 38 8e 3e c2 94 8f 3e 29 26 28 3e
       -0.16330934 0.27777377 0.2804318 0.16420807
000020 67 7e 0a be a7 21 4e be 70 a1 92 3e e5 d4 a9 3c
       -0.13524781 -0.20130025 0.28638792 0.020731399
000030 d7 58 91 3d 2b da f0 3b 47 a2 1f be 3e 4c bb 3d
       0.07097023 0.0073502264 -0.15589248 0.091454014
000040 b5 73 d2 3e 03 12 9b 3e 68 e2 cb 3d b2 79 7d 3e
       0.41103902 0.3028718 0.09955293 0.24753454
000050 78 c2 4e 3e d9 f4 9f 3e b8 00 c3 3e 90 a8 8b 3e
       0.20191371 0.3124149 0.38086486 0.2727704
000060 8f cb 97 bc 62 55 10 bd 9f a7 05 3c eb 84 51 bc
       -0.018529681 -0.035237677 0.00815764 -0.012788038
000070 0e 2f 2c bd 2b 52 57 3e 61 0f 88 bd 9d e2 47 be
       -0.042037062 0.21027438 -0.06643558 -0.1952004
000080 19 64 98 3d 1d 6b 70 3d a1 23 88 3d 4f a4 28 be
       0.07440967 0.0586959 0.06647421 -0.16468929
000090 0c 99 91 3d be 79 1d 3e 0e 3a 89 3e 21 05 45 3e
       0.071092695 0.15378472 0.26802105 0.19240238
0000a0 e5 6e f1 3d 01 21 9e 3e 9a 8b 02 3e e0 e2 63 3e
       0.117887296 0.30884555 0.12748566 0.22254515
0000b0 cc b5 f6 3d 2d f1 a5 3e 9d 62 b1 3e 91 d3 40 3e
       0.12046394 0.32410565 0.34645548 0.18830706
0000c0 54 3d 1a 3e 40 ef d5 bd fd c8 1f be 26 30 61 3d
       0.15062457 -0.10446024 -0.15604015 0.05497756
0000d0 0d 15 2b be c3 36 d3 3d bb e2 3a be c0 28 33 3e
       -0.16707249 0.10313179 -0.18250553 0.17496014
0000e0 4c 2b 65 3d 16 b4 38 3d c5 2b 20 be 23 cc 21 bd
       0.055949494 0.04509362 -0.15641697 -0.03950132
0000f0 dd 53 8f bd 80 55 c4 bd 3f 75 f4 bd 2b 88 8e 3d
       -0.069984175 -0.0958662 -0.119364254 0.06959566
000100 96 09 a1 bb b2 f9 be bd bb ec 17 be 8b 20 52 bd
       -0.004914473 -0.09324969 -0.148364 -0.051300567
000110 c7 66 e2 bc 1e 54 1e 3d 02 6a 41 3c 37 3e 9e bd
       -0.027636899 0.03865444 0.011805059 -0.0772671
000120 65 3e 31 b9 39 ea 37 3e 81 5f d8 bd e5 88 79 3e
       -0.00016903279 0.17960443 -0.10565091 0.24368627
000130 5e da ae 3e 96 ac a0 3d cc f4 c7 3d 7c f6 ca 3d
       0.34150976 0.07845418 0.09763488 0.099102944
000140 34 da 4a bd 14 68 d4 3d aa cb 48 3e 95 51 f2 bd
       -0.0495245 0.10371414 0.19608942 -0.11831967
000150 67 e0 89 3e d6 ff 1b be aa 4c c8 3d 4a a1 0b 3e
       0.26929018 -0.15234312 0.097802475 0.13635746
000160 64 a2 da bb 53 b9 cd bd c4 55 cb bd 10 d0 89 bd
       -0.0066721905 -0.100451134 -0.09928468 -0.06729138
000170 c3 1f ef 3d f7 f1 9e 3d 74 9f a9 bd 72 64 df bd
       0.1167598 0.07760995 -0.082823664 -0.1090783
000180 a2 3b 09 be d1 91 48 3c 1b 2f bc bd 04 17 4b be
       -0.13401654 0.012241797 -0.09188672 -0.19832999
000190 08 a1 e2 3d 6f 91 b9 bd 6b 6f c3 3d 70 33 74 3e
       0.110658705 -0.090609424 0.09542736 0.23847747
0001a0 82 a2 4d 3e 20 75 47 bc 44 22 05 3e e6 7e 96 3d
       0.20081523 -0.012173921 0.13001353 0.07348423
0001b0 be c4 a8 3d a7 50 f7 bd 57 ee 58 3d 25 32 32 3e
       0.082406506 -0.1207593 0.052961674 0.17401941
0001c0 04 db 5e 3e 19 3e 1c be f5 22 d5 bd 1b bb 60 3e
       0.21763235 -0.15258063 -0.10407058 0.21946375
0001d0 f8 35 11 be eb ea 1e be b1 46 cb 3d 1b 09 a0 3d
       -0.14180744 -0.15519302 0.09925593 0.07814237
0001e0 3f 5e 32 3e a9 a0 ba bd 35 41 ff 3d 27 b0 a7 3d
       0.17418765 -0.09112675 0.12463609 0.08187895
0001f0 0c f8 a6 bd 56 16 d8 3c ad f0 f2 bd 11 c1 d2 bc
       -0.0815278 0.026377838 -0.118623115 -0.025726827
000200 b4 79 b3 3d 69 e8 c4 bd d2 74 15 bb d2 f7 09 3e
       0.087634474 -0.09614641 -0.0022805226 0.13473442
000210 cb 67 24 be 1c 9a a4 3d 0f ea 2e 3e fa 0b 12 3c
       -0.16055219 0.080372065 0.17081474 0.008913988
000220 33 e3 3d 3e 5c a6 3f 3e 0c 87 5e bd 3a 89 20 bd
       0.18543701 0.18715805 -0.05432801 -0.03919337
000230 a2 97 44 3e 76 88 99 3e e2 41 1d 3e e1 c6 b9 3e
       0.19198468 0.29986924 0.15357164 0.36284545
000240 de 11 79 3e b5 c9 3c bd 92 19 78 3e e5 92 a3 3e
       0.24323222 -0.0460908 0.24228504 0.3194801
000250 47 ea 91 3e d3 dc a2 3e
       0.28499052 0.318091

conv1.bias f4 [6]
000000 b6 1f c4 3d cc bd e7 3d a5 e3 02 be d1 04 6b 3e
       0.09576361 0.11315498 -0.12782152 0.22951056
000010 23 78 69 bd b6 74 8f 39
       -0.056999337 0.00027362042

conv2.weight f4 [16, 6, 5, 5]
000000 03 a8 6a 3d 6c 97 9c bd 93 95 af bd 66 d8 4c bd
       0.057289135 -0.07646069 -0.08573451 -0.05001106
000010 55 82 57 3d b9 f5 04 3d e5 83 d6 bc 07 42 4f bd
       0.05261453 0.032460902 -0.02618594 -0.050600078
000020 5a d6 8c 3d b2 2a 94 bc b1 39 bb bd a6 96 4a 3d
       0.06876822 -0.018086765 -0.09141863 0.049460076
000030 c7 a1 03 3c a1 7c 8f bd 09 3c 7e 3d ce 73 ea 3b
       0.008034176 -0.07006193 0.062068973 0.0071549183
000040 ca 81 69 3d 30 10 aa bc 42 06 d2 3c ae 11 7b 3d
       0.057008542 -0.020759672 0.02563775 0.061296158
000050 2f fb 74 3d ca d6 6d bd c1 d0 70 bd 2a ac 4d bd
       0.05980986 -0.058066167 -0.058792833 -0.050213017
000060 de ed 4b 3d 3a 1c e7 3c a3 b9 69 3d ca b9 5a 3d
       0.049787395 0.028211702 0.057061803 0.05339984
000070 e0 58 dc bb ab ef 1d 3d 3b 77 3e 3c d2 47 86 bd
       -0.006724462 0.038558643 0.011625106 -0.065566674
000080 1a a7 40 bd 9c 49 76 3c c9 d0 8d bd 0c 87 d3 bc
       -0.04703436 0.015032198 -0.06924588 -0.025821231
000090 32 92 9a bd f2 9a c0 bc 4f 6f b9 3c 22 eb 7d bd
       -0.07547416 -0.023511384 0.022636084 -0.06199182
0000a0 4c 45 80 bd 40 cf 93 3d cf 1b 49 3a a8 b4 10 3d
       -0.06263217 0.07217264 0.00076716853 0.035328537
0000b0 be 28 95 3c c7 ce 3b bd e0 1d 2f bc 69 fb 80 bc
       0.018207904 -0.045851495 -0.010688275 -0.015744882
0000c0 67 dc 5d bd d8 4f 90 3b c3 79 9f bd 48 98 e4 bc
       -0.05416527 0.0044040494 -0.07786896 -0.027904645
0000d0 b8 33 dc 3b e7 eb 1d 3d 14 4d 7a bd a7 cc e4 3c
       0.0067200325 0.038555052 -0.061108664 0.027929617
0000e0 3c 12 41 bd fd 49 49 bd d9 84 58 bd 81 d1 4f bd
       -0.04713653 -0.049142826 -0.05286107 -0.050736908
0000f0 2b 5f 64 3d 16 47 54 bd db 89 3f 3d b1 4f a7 bc
       0.05575482 -0.051825605 0.04676233 -0.020423742
000100 16 e0 8f 3d 14 9c 77 3c 05 66 a5 3d c8 59 c1 3c
       0.07025163 0.0151128955 0.08076099 0.023602381
000110 e2 8a 43 3d 7e 46 9f bd a9 be 2a 3d d1 55 15 3d
       0.04773987 -0.07777117 0.041685734 0.036458794
000120 a1 76 24 3d f8 63 7f bd d0 09 3a bc 05 98 80 3d
       0.040152196 -0.062351197 -0.011354879 0.062789954
000130 63 7c ee bc 24 6d 7a bc 8d cb 0e 3d 28 f6 0c bd
       -0.029112047 -0.01528481 0.03486209 -0.03441444
000140 72 c3 3d bb 41 5f 96 3d e4 f1 88 3d 7b 05 89 bd
       -0.0028955606 0.07342387 0.06686762 -0.066904984
000150 74 e1 67 bd 10 01 e0 bc 8a 93 37 bd 8e 0f a6 bd
       -0.056611493 -0.027344257 -0.04481844 -0.081084356
000160 e7 7c d2 3c 95 82 89 3c 23 c3 38 3d 36 11 8d bd
       0.025694324 0.0167859 0.045107972 -0.06888048
000170 b7 01 4b bd 3a 47 00 3d d9 ca 4e bd 9a 0d 87 3d
       -0.049562182 0.031317927 -0.05048642 0.06594391
000180 10 bd e9 3c 90 57 72 3d 3c 0d 47 bd ee 2e 8a bd
       0.028532535 0.059165537 -0.048596606 -0.067472324
000190 7c 52 5b 3d 7b 0e ab 3c 01 e4 fb 3b 40 c3 48 3d
       0.05354546 0.020880928 0.0076870923 0.04901433
0001a0 35 77 9f bc 4f 16 f0 3b 52 74 17 bd 14 f6 63 3d
       -0.019466022 0.007326878 -0.036976166 0.0556546
0001b0 73 f5 19 bd 8c 86 90 bb 5f d7 b2 bd 9f 76 c2 bc
       -0.037587594 -0.0044105705 -0.08732485 -0.023738204
0001c0 f5 3f 7f bd 56 ed 93 bc af ea 78 bc 84 78 37 bd
       -0.062316854 -0.018057507 -0.015192672 -0.044792667
0001d0 57 2a 90 3d 2a e4 fd 3c 7c d5 eb ba 27 cd 99 3d
       0.07039326 0.030992586 -0.00179927 0.07509833
0001e0 0f 2a 0e 3d 23 19 fc 3c 4b 96 1c bd 1d 25 9c 3d
       0.03470808 0.030773705 -0.038229268 0.07624266
0001f0 d6 ca 4c 3d 4d 3f 94 bd 6e 87 62 3d d9 6c 32 bd
       0.049998127 -0.07238636 0.055304937 -0.043560836
000200 5b d7 55 3c 8b de 89 bc ac 1e 8d bd 49 d6 c7 bc
       0.013051833 -0.01682975 -0.06890616 -0.024394171
000210 a9 88 97 3d 09 c1 28 3d ef c8 a7 3d cc fc cc bc
       0.07399113 0.041199718 0.08192622 -0.025022887
000220 29 22 db 3c 3e cb b0 3c e6 60 98 3d b7 09 44 bd
       0.026749687 0.021581288 0.07440357 -0.047860827
000230 75 e7 81 3d 1e 8b ab 3c de e7 33 bc 01 c5 05 3d
       0.06342975 0.02094036 -0.010980574 0.03265858
000240 64 8e 83 bb 25 10 19 bc 8d c5 91 3d e7 ea 0d bd
       -0.004014777 -0.009342228 0.07117758 -0.03464785
000250 a6 09 82 bc 08 19 20 bd 59 83 92 bd 8f 14 9e bd
       -0.015873741 -0.03908637 -0.07153959 -0.07718765
000260 46 fb f0 3a 13 17 c7 bc ec f8 94 3c 74 3d 03 bc
       0.0018385432 -0.024302995 0.018185101 -0.008010257
000270 a3 72 c7 3d 2d 19 cc 3d d9 cd 02 3e fc dc f3 3d
       0.09738662 0.099657394 0.12773837 0.11907384
000280 8d 4f 3d 3d 3d 49 d2 3d 5c c8 02 bd 84 51 55 3c
       0.046218444 0.10267875 -0.03192936 0.013019923
000290 12 7b f2 3d d2 f2 c9 3c 00 82 71 bd 10 43 74 bd
       0.1183988 0.024651919 -0.05896187 -0.05963427
0002a0 61 79 bb 3d 13 22 cf 3d c3 e8 3e 3c 1c 95 da bc
       0.091540106 0.10113921 0.011652174 -0.026682429
0002b0 1b 47 8b bd 3e 02 c2 bc a9 c9 c3 3c 09 34 46 3d
       -0.06800672 -0.02368271 0.02389987 0.04838947
0002c0 62 d7 8f bd d8 4b 87 bb 1f f3 a6 3d 41 f8 f2 3c
       -0.07023503 -0.0041289143 0.081518404 0.029659392
0002d0 e5 d9 ed bc 60 a8 18 bb e7 e9 b3 3d 3a 3f fe 3d
       -0.029034564 -0.0023293719 0.08784848 0.12414403
0002e0 f2 40 40 3d 9f 03 6a bd 8a 8c e8 3c c0 11 0a 3d
       0.046936937 -0.05713236 0.028387327 0.033708334
0002f0 3a 01 ea 3d 20 f7 a2 bc aa 83 3a bd f6 04 04 3d
       0.11426015 -0.019893229 -0.04553572 0.032231294
000300 96 d0 36 bd e7 81 a2 bd bd 25 4a bd 38 1d d9 3b
       -0.044632517 -0.07934933 -0.049352396 0.0066257976
000310 53 a8 b4 3c bf 61 b7 bd d2 fc b3 3b f2 1a 2c bb
       0.02205292 -0.089541905 0.005492785 -0.0026261178
000320 06 21 30 bd 3f 0f 3c bd 63 95 01 3d 94 40 20 bd
       -0.043000244 -0.045912977 0.031636607 -0.039124086
000330 b0 ba 5b bd 6e 54 c0 bc 75 78 97 3d 10 d5 52 3c
       -0.053644836 -0.02347776 0.07396022 0.012868181
000340 51 1e 4c 3d 5d a2 b1 bb 3a d4 e1 bc 7d b3 8f bd
       0.0498336 -0.0054209665 -0.027567018 -0.070166565
000350 70 e4 9d 3d 51 a3 17 bd b6 b2 1c 3d 10 67 72 3d
       0.077095866 -0.037020985 0.03825637 0.05918032
000360 fd b2 3d bd 42 17 8a bd 21 47 60 bc 4f 34 fb 3b
       -0.046313275 -0.06742717 -0.013688833 0.007666148
000370 d2 fc 9e bc 76 b6 cf bb 05 c5 c6 bb 93 87 51 bd
       -0.019407663 -0.0063388897 -0.006065967 -0.051154684
000380 86 8c d5 3c 12 01 66 bd 8e 40 7e 3d 64 8d 89 bd
       0.026067983 -0.056153364 0.062073283 -0.06716421
000390 54 a8 82 bd 91 41 84 3d a1 e3 81 bd 6c cc 8e bd
       -0.06379762 0.06457818 -0.06342245 -0.06972584
0003a0 c0 63 19 bd 72 7c 8d 3c fc df 79 bd 22 b4 84 bd
       -0.037448645 0.017271254 -0.061004624 -0.0647967
0003b0 19 fd 24 bc 12 ad 3c bd 76 58 a6 bd e2 37 3b bd
       -0.010070109 -0.04606349 -0.08122341 -0.04570759
0003c0 8e 99 d6 bc ef f6 d1 3c 13 9e 25 bd 04 44 ce 3d
       -0.026196267 0.025630442 -0.040433954 0.10071567
0003d0 10 c0 b8 3d b4 75 1a 3d e9 a1 86 3d 11 4c a5 3d
       0.09021008 0.037709907 0.06573851 0.08071149
0003e0 fc b0 14 3d e2 94 11 bd 81 78 1e 3d 40 b8 a4 3c
       0.036301598 -0.035542376 0.03868914 0.020107388
0003f0 73 4c af 3c 85 1a 03 bd 99 69 7a 3c 48 0f 32 3d
       0.021398759 -0.032007713 0.0152839655 0.043471605

conv2.bias f4 [16]
000000 7c cc 81 bd eb cf b0 3c 0b 1b 31 bd c3 68 5c bd
       -0.063378304 0.021583518 -0.04323868 -0.053810846
000010 46 58 5b bc 17 16 c5 3d ea a6 ac bd 5e 48 9a bd
       -0.013387745 0.09623354 -0.08430274 -0.07533334
000020 05 6b 0d 3d 9b 83 a8 bc e3 bd 18 bc e6 bb cd 3d
       0.03452589 -0.020570567 -0.009322616 0.100456044
000030 a4 b6 16 3c b7 5d 77 bd 43 21 ba bd b7 aa 63 3d
       0.009198818 -0.060392108 -0.090883754 0.05558273

fc1.weight f4 [120, 256]
000000 65 64 64 3d 92 7f 7f 3d 49 a4 01 bd f2 b4 d8 3c
       0.055759806 0.06237752 -0.031650815 0.026453469
000010 03 59 fa bc 6b 13 6d bd 43 69 1d 3d ce 02 58 bd
       -0.030560022 -0.057879847 0.038430464 -0.05273705
000020 41 d4 48 3d 3f 05 10 bd a8 ff 6a bb e5 c4 b5 3c
       0.049030546 -0.035161253 -0.003585795 0.022188613
000030 22 1a 9d bc 03 76 76 3d 13 20 34 3d d5 70 34 bd
       -0.0191775 0.06017114 0.0439759 -0.044052918
000040 b8 ce 4e 3d d5 51 0b 3c a5 cc 0c bd 29 f0 c9 bc
       0.05049011 0.008503397 -0.03437485 -0.02465065
000050 b0 9d d7 3c 5b 94 16 bd 55 cb cf bc db 5d f8 3c
       0.026320308 -0.036762577 -0.025365511 0.030318191
000060 9a e8 da bc 65 82 48 3d 31 d1 4e 3d 3d 1a 59 bd
       -0.026722241 0.04895248 0.05049247 -0.05300354
000070 6e 3a fa 3c fc c2 12 bd 8c 5c df bc 17 25 61 bc
       0.03054544 -0.035830483 -0.02726581 -0.013741753
000080 97 b6 d5 3c 5c d6 00 3c a8 03 a8 3c 8d c9 51 3d
       0.026088042 0.007863607 0.020509556 0.051217604
000090 04 aa b7 bc 6d 6c 74 3d 27 80 41 3d 9e 20 1f 3a
       -0.022419937 0.059673715 0.047241356 0.0006070229
0000a0 e1 92 23 bd 9a f0 a0 3c 86 7e 34 bd f3 73 fa bc
       -0.039934997 0.019645978 -0.044065975 -0.030572867
0000b0 8a 5a 1f 3d 32 b3 bc 3c bc 9e 43 bd d2 1b e2 bb
       0.038904704 0.023034666 -0.047758803 -0.006900289
0000c0 cd 4f 53 bd c7 9f 89 3c 87 88 63 bc df a6 4a 3d
       -0.051589776 0.01679982 -0.013887531 0.049475547
0000d0 96 4d 85 bb 54 23 2a 3d e1 45 af 3a f7 46 8f 3a
       -0.004068087 0.041537598 0.0013372266 0.0010931183
0000e0 fe 25 2e 3d 0a 69 93 3c db d8 5d 3d 6a 39 5e bd
       0.0425167 0.017994422 0.054161888 -0.054253973
0000f0 0b 75 7a 3d 5a bb dd bb e2 6a 3c bb 74 0d f6 bc
       0.061146777 -0.006766719 -0.002875023 -0.030035712
000100 08 02 c6 bc c6 7a 4d 3d 1d 73 ad bc f1 c3 2b 3d
       -0.02417089 0.050165914 -0.021173054 0.04193491
000110 fa 0c 42 3d c1 67 3a bc a1 d9 0b bc 03 bc 10 bc
       0.047375657 -0.011377276 -0.0085357735 -0.008833888
000120 fc 60 b7 3c e1 5b c9 3c 7d b2 ba bb 78 f9 29 3c
       0.022385113 0.024579944 -0.005697547 0.010374419
000130 85 21 a8 3c ad 73 b4 3c e7 49 2f 3d 7f 25 5e bd
       0.020523796 0.022027815 0.04279509 -0.054234978
000140 90 24 de bb ba e5 9e 3c d7 41 8b 3c ce 65 c4 bb
       -0.006779261 0.019396652 0.016999168 -0.0059935814
000150 35 2c e7 3b a1 8c 45 bd e8 8a ea bc ae 4a 49 bc
       0.0070548304 -0.048229817 -0.028630689 -0.012285871
000160 77 bf 26 3d ba 9c 91 bb 8e 40 02 bc 7a a2 1d 3d
       0.04070994 -0.004443732 -0.007949961 0.038485028
000170 eb 9f de bb 73 5d 60 bd 19 1a 00 3c 6e 33 27 bd
       -0.006793966 -0.05477662 0.007818722 -0.04082053
000180 b6 3a 37 3d 0c dc 26 3d 7a fd a4 3c 5b f8 8b bc
       0.044733725 0.040737197 0.020140398 -0.017086199
000190 81 d8 9a 3c cf e8 89 3b 42 57 6c bc 32 b1 86 3c
       0.018902065 0.004208661 -0.014425101 0.016441915
0001a0 b4 a6 2f 3b 51 80 02 bd 9a 3d 44 bd 18 f0 3b bd
       0.0026802244 -0.031860653 -0.04791031 -0.045883268
0001b0 bc e2 ea bb b6 6b 72 bc 4b 7d 4a bd f5 6e 79 bd
       -0.007168142 -0.014796188 -0.049435895 -0.060896832
0001c0 ae 16 7f 3c d4 c8 8c 3b 25 59 3e bd e4 d8 83 3c
       0.015569372 0.0042964015 -0.046471734 0.016094632
0001d0 c9 f8 ba bc 3e 08 e1 3b 2a b4 cd 3c dc 45 14 bd
       -0.022823708 0.0068674376 0.025110323 -0.036199436
0001e0 31 be a9 ba 3c 3a 18 3c 46 24 53 bc 2e 5d 65 3d
       -0.0012950358 0.009291228 -0.012887066 0.055997066
0001f0 63 57 35 3c a8 81 dd bb d2 80 cd 3b 09 87 81 3d
       0.011068198 -0.006759841 0.00627146 0.06324584
000200 ab f2 2d bc a2 56 11 3d 05 2c cb 3c dd 0a 32 3d
       -0.010616939 0.03548301 0.024801264 0.04346739
000210 08 08 77 3d d6 5a 50 3d bb f3 7f 3d c1 8b 39 bd
       0.060310394 0.050867878 0.0624883 -0.045299295
000220 68 e8 be bc ff a2 c2 bb cb 0c db bb 11 43 5c bd
       -0.02330418 -0.005939841 -0.0066848747 -0.053774897
000230 a8 97 2e bc 9f a6 7c 3c f2 f9 3c 3d d7 f6 5f 3d
       -0.010656275 0.015420585 0.046136804 0.054678764
000240 13 87 b2 3c fa f1 78 3d 8f 00 b8 bc 80 d3 1a ba
       0.021792924 0.06077764 -0.022461204 -0.000590615
000250 6c 4b 02 bc 71 2f d6 bc 6f 30 e4 3c cc 31 21 3d
       -0.007952552 -0.026145669 0.027855126 0.03935413
000260 d2 21 cf bc 65 53 e9 bc cb 98 95 3b db 64 2f bd
       -0.025284681 -0.028482148 0.0045653335 -0.042820793
000270 95 e9 f1 bc c8 f6 c8 ba 2b 5b 61 3d ad 9e 03 3d
       -0.029530326 -0.0015332336 0.055018585 0.032133747
000280 cf eb 1f 3d 55 2d 31 bd 59 bf 11 bd b5 e6 b8 3c
       0.039043244 -0.043256123 -0.035582874 0.022570947
000290 fd 2e 76 3d 75 a9 3c bd 6b e1 5c bd 55 93 5a bd
       0.060103405 -0.046060044 -0.053925913 -0.053363163
0002a0 a6 ba fd 3c 4d 41 fe bc 3c fa 23 bd b3 94 a3 bc
       0.03097279 -0.031036997 -0.040033564 -0.019968366
0002b0 0b 49 eb 3c f5 c9 2c 3c 8d f1 b1 3c cf d6 5f bb
       0.028721353 0.010546197 0.021721626 -0.0034155136
0002c0 6b 3a 5e bd 01 33 44 bd ae c9 40 3d ae 23 ab 3c
       -0.05425493 -0.047900204 0.047067337 0.020891037
0002d0 1f a1 6f bd 97 59 10 bd 51 0c 49 3c 75 37 5a bb
       -0.058503266 -0.03524169 0.012271003 -0.0033297215
0002e0 97 5e b3 ba bb f3 b4 3c 0d d6 5f bd f6 94 09 bd
       -0.0013684806 0.022088876 -0.054647494 -0.033589326
0002f0 ee 50 42 bd e9 33 be bc cc 8b 34 3b ce 18 0c bd
       -0.04744046 -0.023218112 0.0027549146 -0.034203343
000300 97 91 c5 3b 86 8b 0d 3c 8d 20 3b bd 70 bb b1 3c
       0.0060293186 0.008639222 -0.04568534 0.021695822
000310 7b e7 e3 bc c0 98 c6 bc 08 1f 8e 3b 9f 12 e1 3a
       -0.02782034 -0.024242759 0.0043371953 0.0017171687
000320 e8 50 2d 3d c8 56 3b 3d ab dc 7c 3d 79 3f 6b bc
       0.042313486 0.045737058 0.061733883 -0.014358395
000330 f6 4e 77 bd d7 7f 01 bb 70 ea 3a 3d 12 bc 99 bc
       -0.060378037 -0.0019760036 0.045633733 -0.018766437
000340 c8 ef f5 bb 15 ac ad 3b a9 ea 16 3d ba 3d 73 bd
       -0.007505391 0.005300055 0.036844883 -0.05938504
000350 90 31 31 bd fa 0c fa bc 88 16 48 3d ea 68 1b bc
       -0.043260157 -0.030523766 0.048849612 -0.009485463
000360 7d d1 d2 bc ca e4 0c 39 ce 4c a2 3c 30 0b be bc
       -0.025734657 0.00013436671 0.019812014 -0.023198694
000370 e4 a0 9d bc c7 3b 1c bd 72 11 2d bd 61 f5 15 3d
       -0.019241758 -0.038142946 -0.042252965 0.036610965
000380 31 39 14 bd bb 17 5a 3d 75 c1 8a 3b 1e f1 0f bc
       -0.036187354 0.053245287 0.0042344877 -0.008785514
000390 56 48 60 3d b6 60 a2 3c 0b cf 11 3d dd 36 3e bd
       0.054756485 0.019821506 0.035597842 -0.04643904
0003a0 27 b8 0b bd 0f 16 39 3c 69 dc f3 3c e6 ed 22 bc
       -0.03411117 0.011296763 0.029768186 -0.009944415
0003b0 b6 0b e9 bc 2d 8c 48 bc 97 81 ce 3c 3a ae 97 bc
       -0.028447967 -0.012240452 0.025208278 -0.018515695
0003c0 f1 96 7d 3c ec a6 05 3d 32 ce 60 bd 13 33 a4 3c
       0.015477882 0.032629892 -0.054884143 0.020043885
0003d0 17 1d 37 3d 11 71 05 bd c2 28 75 bd 34 a3 71 bd
       0.044705477 -0.03257853 -0.059853323 -0.058993533
0003e0 de f8 0d 3d e8 39 51 3c 9c 90 16 3d 9d 4a 00 3d
       0.034661166 0.012770154 0.036759004 0.031321157
0003f0 92 a9 43 3d f3 b9 52 3d f2 17 08 bd d6 29 47 bd
       0.047769137 0.051446866 -0.03322596 -0.048623882

fc1.bias f4 [120]
000000 c1 d9 49 bd d4 87 3f bd 0a 5e df bb 32 af 72 3c
       -0.049279932 -0.046760395 -0.0068166303 0.014812278
000010 4c 93 9f bb a8 28 5a 3d a2 d3 8c 3c 08 ec 8c bc
       -0.004869854 0.05326143 0.017190758 -0.017202392
000020 1d 75 6b bd 72 0c ab bc 14 09 e0 bc db 3a be bc
       -0.057484735 -0.020879958 -0.027348079 -0.023221424
000030 5a 60 7f bd d0 21 16 3d 8b 76 14 3d 78 22 6c bd
       -0.062347747 0.03665334 0.036245864 -0.05765006
000040 47 7e 18 bd 59 bd 6b bd 24 04 90 bc 8c a7 e0 bc
       -0.037229802 -0.057553623 -0.0175801 -0.027423643
000050 ff 9a 1a 3d 4b ba 5a ba 08 d4 07 bd be 7b 47 3c
       0.037745472 -0.00083438 -0.033161193 0.0121754985
000060 77 12 ff 3c 25 3c 81 3c 32 80 72 bb 4f a6 18 bd
       0.031136734 0.01577575 -0.003700268 -0.03726798
000070 4a ed 12 bd c9 69 95 b7 56 17 5e 3d 50 e1 7b 3d
       -0.035870828 -1.7811444e-05 0.054221474 0.06149417
000080 bf ee 19 bd 63 b4 80 3d cd d9 9c bc d4 7a 04 bb
       -0.0375812 0.06284406 -0.019146824 -0.0020214813
000090 ef 58 7d bc 0a a8 81 3d 25 e5 3a bd b5 6b c6 3c
       -0.015463098 0.06330879 -0.045628686 0.02422128
0000a0 cf 25 2b 3d 2c d9 77 bc 6d 41 25 3d 4a 06 aa 3c
       0.041784104 -0.015127461 0.040345598 0.020754952
0000b0 22 1a 0c bc 54 8e b6 3b 81 c4 3a 3d ff f8 4d bc
       -0.008551152 0.005571166 0.045597557 -0.012571572
0000c0 e1 76 82 bc 13 5b 6e bc be 7a 50 3d cb 78 27 3d
       -0.015925827 -0.014548081 0.050898306 0.04088668
0000d0 40 d2 ea 3c 72 56 72 3c 8d 4c 02 bd ec 9d 8f bd
       0.028664708 0.014791118 -0.031811286 -0.07012543
0000e0 7e 02 b7 bb 92 30 17 bd b0 0a c7 3b 00 ee 93 3c
       -0.005585014 -0.036911555 0.006074272 0.018057823
0000f0 d3 c1 52 bd 91 ad 05 bd f2 83 74 bb c6 75 5c 3d
       -0.051454376 -0.03263623 -0.003731009 0.053823255
000100 e1 b2 19 3d 35 8d 48 3d f7 b7 fa bc 4e c5 5b bd
       0.037524108 0.04896279 -0.0306053 -0.05365496
000110 a3 48 f2 b9 a6 3c 53 3c 3e 69 8b 3d ef 3b 8f 3d
       -0.00046211955 0.012892878 0.06807183 0.06993853
000120 20 b1 39 bd e4 71 e5 3c 61 f3 f1 bc a9 c4 05 3d
       -0.045334935 0.028008409 -0.029534997 0.032658253
000130 cf a5 3b 3d 10 cb 88 bb ce cc 52 bd 2f 90 bd 3c
       0.045812424 -0.0041745976 -0.05146485 0.023140041
000140 5d 40 85 bb 95 cd 09 bd 0e 83 1b 3d 2c 73 68 3d
       -0.0040665106 -0.033643324 0.03796678 0.05675046
000150 a4 1a 7a bd 09 59 5c bc 64 ae 7d ba d1 f4 35 bd
       -0.061060563 -0.013448962 -0.00096771703 -0.04442293
000160 ee 4e 7c 3d 24 5f f6 ba eb c1 a8 3c c1 2a e3 3b
       0.06159871 -0.0018796665 0.02060028 0.006932587
000170 58 01 0a bd 32 50 77 bd 09 f3 de bc fc 54 92 3d
       -0.033692688 -0.060379215 -0.027215498 0.07145116
000180 e0 9a 47 bd c1 e9 5a bd 3e f0 69 bd b9 2a 58 bb
       -0.048731685 -0.05344558 -0.05711388 -0.003298445
000190 10 31 a9 3b e2 ae 62 bd 6b 90 0b 3c bc 93 7d 3c
       0.0051633194 -0.055342562 0.008518319 0.015477117
0001a0 49 2c ad bb 9c 9b b7 bc 0c 8d 5b bd 99 46 b6 bb
       -0.00528482 -0.022413068 -0.05360131 -0.005562615
0001b0 ee 01 4a bd 67 37 27 ba e0 40 b3 bc 04 6e 87 3c
       -0.049318247 -0.00063788 -0.02188152 0.016531952
0001c0 e5 b0 33 3d ef e5 dd bc 80 0b 3d bd ce e4 80 bd
       0.04386987 -0.02708718 -0.046153545 -0.06293641
0001d0 79 92 85 bc 0c 70 3c 3d 40 30 b8 bb 91 f7 c2 3c
       -0.016305195 0.046005294 -0.005620986 0.02379969

fc2.weight f4 [84, 120]
000000 fb ad 5f 3d f5 03 93 bd ed 2f a1 3c b2 26 49 3d
       0.05460928 -0.07178489 0.019676173 0.04910917
000010 78 14 e7 bd 44 9d 35 3d 08 a1 34 3d b6 34 8c bd
       -0.11283201 0.044339433 0.044098884 -0.06845991
000020 8d a8 af bd 69 14 87 3d 2e d3 88 3d 02 9c 4d 3d
       -0.085770704 0.0659569 0.06680904 0.05019761
000030 a6 b4 7c bd 90 08 53 bd 74 ee 5d bd aa 03 06 3e
       -0.061695717 -0.051521838 -0.054182485 0.13087335
000040 59 53 1b bc c8 16 3b bd 97 cb 49 3d 07 57 cc 3c
       -0.009480321 -0.045676023 0.049266424 0.024943842
000050 fe 64 4a 3d 41 4a 8c 3d fc a8 c0 bc 59 12 a7 bd
       0.04941272 0.068501 -0.023518078 -0.081577964
000060 65 73 71 bc cd f1 a4 3d 95 cb 1a bc 59 57 40 bd
       -0.014736985 0.08053932 -0.009447952 -0.0469583
000070 00 cf 0f 3a 73 3c 87 3d 6b e4 6a bc 5e 5d 99 bc
       0.00054858625 0.06603327 -0.014336686 -0.018721279
000080 9a 1d db 3a d0 d1 c9 bd 22 81 b7 3d 77 09 68 bd
       0.0016717196 -0.09854472 0.08960177 -0.05664965
000090 44 31 f3 bb d6 8a 98 bc 15 4c 19 3d c9 cb 85 bc
       -0.0074216444 -0.01862089 0.037426073 -0.016332524
0000a0 01 c9 45 bd f7 d1 14 bd 80 1a d4 bd 17 10 73 bd
       -0.048287395 -0.03633305 -0.10356617 -0.059341516
0000b0 f6 61 06 3d 6f 0c 03 bd 55 9b a2 bd ca a2 fa bc
       0.032808267 -0.03199428 -0.079397835 -0.030595202
0000c0 64 29 7b 3d b6 48 61 3c 6b 5c dc bd 78 a0 42 3c
       0.06131877 0.013750246 -0.10759815 0.011879079
0000d0 ad ff 58 3d 5b 1a 8f bc d3 07 c3 bd b5 37 0c be
       0.052978206 -0.017468622 -0.09522977 -0.13693126
0000e0 26 cb 43 bd 64 fe 8d 3d 54 ac 8b bd a0 6b 53 3b
       -0.04780116 0.06933287 -0.06819978 0.0032260194
0000f0 da f5 ed 3d 78 9f 6f 39 5f c5 9b 3d 42 e1 8f 3d
       0.11619158 0.00022852223 0.07606005 0.070253864
000100 9c 13 69 bd c2 c0 2f bd 71 09 09 bc 54 f9 61 3d
       -0.056903467 -0.042908438 -0.008364067 0.05516942
000110 b6 da 97 3d b7 72 6e ba 39 39 82 bd 35 e1 b4 bd
       0.07414763 -0.00090960733 -0.063585706 -0.08832017
000120 1c 35 b8 bc 21 76 c9 3d 57 3d b2 3d ea b4 31 bd
       -0.022486262 0.098369844 0.08703106 -0.043385424
000130 3d bf 37 3d 64 60 01 3e 22 82 7c bd 2e ce 31 3c
       0.044860113 0.12634426 -0.06164754 0.01085238
000140 15 49 33 3c 81 c8 89 3d 18 00 bf 3d 9a b9 3b 3d
       0.010942717 0.06727696 0.0932619 0.0458313
000150 01 d9 50 3c 25 e5 18 3d 8d 67 ad bd dd 2b a2 bd
       0.01274705 0.037327904 -0.08467016 -0.079185225
000160 98 5e 8c bd 70 10 a2 3d b2 b4 ab 3d 8b f1 c9 bb
       -0.0685398 0.079132915 0.08384074 -0.0061628274
000170 b2 a7 8f 3b 20 ee cf 3b cb 6d 8d 3d ae d5 57 3c
       0.0043840045 0.0063455254 0.06905707 0.013173504
000180 32 aa 9f 3d fe 8b 7a bd 07 1b 05 bd 03 c7 04 3c
       0.07796134 -0.061168663 -0.03249648 0.008104089
000190 b0 99 8f bb ee a2 72 bd 40 69 97 3d 67 69 a4 bc
       -0.0043823346 -0.059237413 0.07393122 -0.020069791
0001a0 97 11 ea 3b 58 0b 36 bd 45 54 54 3d 53 eb 9c bd
       0.00714321 -0.044444412 0.05183818 -0.07662072
0001b0 08 a8 4c 3d a1 2b 59 3d 82 ef e1 bd 98 3f ae 3d
       0.049964935 0.053020123 -0.110320106 0.08508223
0001c0 d7 96 e9 3a 74 0b 24 bb 52 c9 8c bd d8 4d a3 3d
       0.0017821443 -0.002503124 -0.06874336 0.07973832
0001d0 b1 6f 88 bd 5a eb dc bd cc 5f ca 3c 24 72 4e 3b
       -0.066619284 -0.10787077 0.024703883 0.0031501139
0001e0 44 b4 97 bd fd 98 c5 3d 40 7f f0 3d 2f 4a 6e 3d
       -0.0740743 0.09648321 0.11743021 0.058176216
0001f0 98 86 b3 bd 89 44 1b bd 29 54 12 3d 42 ac fb 3b
       -0.08765906 -0.037907157 0.035724793 0.007680447
000200 62 2d a1 bc b0 01 82 3d 50 82 2f 3d bb b7 80 bd
       -0.01967496 0.06347978 0.042848885 -0.06285044
000210 9b e6 a4 bd 25 10 6e 3c 2c 4f be bc 76 23 81 3d
       -0.08051797 0.014530216 -0.023231111 0.06305592
000220 d9 03 1a 3d 8c 8b 8f 3c 60 38 4d bd 99 e4 9a 3d
       0.037601326 0.017522596 -0.05010259 0.07563133
000230 0a ae bc 3c ee e3 87 bb a5 6c 8c bc e7 4a 75 bd
       0.023032207 -0.0041470444 -0.01714165 -0.059885886
000240 83 2b 6a 3d 96 22 fa 3b 36 cb e7 3c d2 e5 bc 3d
       0.057170402 0.0076335175 0.02829514 0.09223522
000250 b7 2d 9e bd 51 69 00 bd bf c2 83 3d 56 32 a0 3c
       -0.07723563 -0.031350438 0.06433629 0.019555252
000260 9c 50 7c bd e7 c7 32 bd 44 71 ef bb 67 22 ac 3d
       -0.061600313 -0.043647673 -0.0073072035 0.08404999
000270 8b 30 33 3d 42 80 c3 bd 55 b6 33 bc 3e e0 09 3d
       0.043747466 -0.095459476 -0.010968764 0.03366112
000280 9b f0 29 bd 0b ce e6 bc 29 9f b6 3d 47 6a 5e 3a
       -0.041489225 -0.02817442 0.08917076 0.00084844645
000290 8a 6c 30 bc bb 39 b9 bd 2e 08 9e 3b 10 8a 3b 3b
       -0.010768065 -0.09044214 0.0048227524 0.0028616227
0002a0 08 5e 94 bd 32 ad 5a 3d f9 ca 9c 3d 06 d6 35 bd
       -0.072444975 0.05338783 0.076559015 -0.04439356
0002b0 5f 42 52 3d b3 27 4d 3d 31 55 93 bc 5c ea 96 3d
       0.051332828 0.05008669 -0.017984958 0.07368919
0002c0 05 39 e3 bc 15 2c b1 bc ec 57 39 3d d3 05 8b bd
       -0.02773715 -0.021627465 0.045249864 -0.0678822
0002d0 6e 68 da bc 6a dd 6f bd 8c cd 5d 3d 27 88 27 3d
       -0.026661124 -0.058560766 0.054151103 0.04090133
0002e0 09 b2 4a 3d 59 7a 70 bd 76 7e 13 3d a4 6a b0 3d
       0.049486194 -0.05871043 0.036009274 0.0861409
0002f0 45 b7 12 bd 2e 72 f3 bc da 94 95 3d 4e ac 89 bd
       -0.03581931 -0.029717531 0.07303782 -0.06722318
000300 d6 8d 95 bc 17 5e 44 bd dc d3 0d bd 89 fa fa bc
       -0.01825611 -0.047941294 -0.034625873 -0.030637043
000310 13 f9 5a bd cd 9e 52 bd 4b 60 dd 3c cd c8 96 3d
       -0.053460192 -0.051420975 0.027023455 0.073625185
000320 b8 db e1 bd cd ca b2 3d 4c 45 83 3c e9 c7 98 3d
       -0.11028236 0.087300874 0.016024254 0.07460005
000330 05 70 99 3d 95 6c ac 3d 7a 48 fd bd e4 2b 4a 3d
       0.07492069 0.08419148 -0.123673394 0.049358264
000340 89 d3 d3 bd 4d b2 48 3d 89 6e bb 3c c6 1f 53 3d
       -0.103430815 0.048998166 0.022879856 0.051543973
000350 4c 2e b4 bd b3 8b af bd 05 70 b5 3d 6c 17 69 3d
       -0.08797893 -0.085715674 0.08859257 0.056907102
000360 b1 70 53 bd 0b 56 3b bd fa 36 a7 3d d6 aa 8e 3b
       -0.051621143 -0.045736354 0.08164783 0.0043538613
000370 e0 ea 0d 3d be 31 a8 bd 00 e5 40 bd d2 e7 48 bd
       0.034647822 -0.082126126 -0.04709339 -0.049049206
000380 ef c4 8b bd e2 a1 98 bc 5d 71 ba 3c 43 2b 0c bd
       -0.068246715 -0.01863188 0.022759134 -0.034220945
000390 f8 c8 4a 3c 3c f2 0a bd 87 5c f7 3c 4a 29 2b 3d
       0.012377016 -0.03392242 0.030195488 0.041787423
0003a0 0d aa 0b be e3 5d cd 3d 76 54 b4 bc 7f f4 21 bc
       -0.13639088 0.10027673 -0.02201293 -0.009884953
0003b0 86 8f 7b bd 1a b8 e4 3c e8 9d ad 3c 2c 4f d0 3c
       -0.06141617 0.027919818 0.02119346 0.025428377
0003c0 1d 20 9f bb c7 fb 65 3d 98 03 92 3c 70 dd b4 3d
       -0.004856123 0.056148317 0.01782398 0.08831298
0003d0 8b ed bb 3d a1 d4 0c 3d b2 7b b9 3d 0a 4f 1a 3d
       0.09176167 0.034382466 0.09056796 0.037673034
0003e0 e5 7f 5c 3c 81 f2 6e 3d 30 07 28 bd 97 1c 3a 3c
       0.013458227 0.05833674 -0.04102248 0.011359355
0003f0 c6 4b c4 bc 92 e9 ed bc cb 47 d0 3a 85 2c 3b 3d
       -0.023961913 -0.029042039 0.0015890537 0.045696754

fc2.bias f4 [84]
000000 3c 9a 6d 3d d1 56 84 3c 8c 10 a3 bc d7 d1 10 bd
       0.058008417 0.016154679 -0.019905351 -0.03535637
000010 0a cb 53 3c 4a 48 45 bc 5e 68 28 3d c4 c9 c7 3c
       0.012926826 -0.012041161 0.041115157 0.024388202
000020 dd 4b 9b bd 16 40 88 bb c2 79 82 bd 81 e7 2b bc
       -0.07582829 -0.0041580303 -0.0637088 -0.010492207
000030 b7 92 62 bd 88 e0 03 3d dc d0 c4 3d 7f 50 6d bd
       -0.0553157 0.03219655 0.09610149 -0.057938095
000040 35 6d 91 3c c9 8d d8 3c 96 cb a5 3d 98 2b 94 3d
       0.01775227 0.026434796 0.080954716 0.07234877
000050 d9 f7 90 3c 90 48 00 3d 87 38 c6 3d f5 e2 59 3d
       0.017696308 0.0313192 0.096787505 0.05319496
000060 27 dd 93 3d f1 5d 03 bd 2c 94 c3 3b fc 26 01 3d
       0.07219916 -0.03207201 0.005968591 0.03153132
000070 0b 34 79 3d 2c 28 4b 3d 5b 16 e5 3c e6 1e be 3c
       0.060840648 0.049598858 0.027964761 0.023208093
000080 e2 96 95 bb d0 aa 8f 3d 58 09 d6 39 76 0b 8b 3d
       -0.004565106 0.07015002 0.00040824222 0.067892954
000090 77 1c 4f 3d 20 e0 4d bd 72 d8 a1 3d 84 84 af bc
       0.050564256 -0.05026257 0.07902612 -0.021425493
0000a0 90 ae b3 bd 6b a2 78 3d 63 07 b6 3c 65 2d 98 bd
       -0.087735295 0.06070177 0.02222032 -0.07430533
0000b0 b1 08 a4 bd a5 ca 78 b9 dc 6a 92 bd e4 4b ef bc
       -0.0800947 -0.00023726614 -0.07149288 -0.029210992
0000c0 b3 a1 61 3d eb e4 8a 3d 59 f5 c0 3c ec bb 3b bc
       0.05508585 0.06781944 0.02355449 -0.011458378
0000d0 a0 98 fc 3c 64 34 85 3c d0 5a 70 bd 39 90 df 3d
       0.030834496 0.016260333 -0.058680356 0.1091618
0000e0 93 2b d4 3d f0 58 02 bd 95 e9 6d 3b e0 e0 82 3b
       0.103598736 -0.0318231 0.0036302556 0.0039940923
0000f0 8c e1 2e bd b5 cc 4d 3d 9d 13 92 3c 4f 7c 86 bd
       -0.042695567 0.050244052 0.017831618 -0.06566679
000100 f5 9d 89 3c 67 a5 5a bd 5c 53 33 39 54 8e 07 bd
       0.016798953 -0.053380396 0.00017101824 -0.03309472
000110 50 47 75 bd ca 65 a8 3d cd b4 50 bc 54 80 b4 bd
       -0.059882462 0.0822254 -0.012738419 -0.08813539
000120 87 75 25 3d 77 d9 d5 3c 7b 25 07 3d 9b b5 83 3d
       0.040395286 0.026104672 0.03299473 0.06431123
000130 c3 af aa bd ab c3 05 3c aa 95 c0 bc 8c 50 95 bd
       -0.08334305 0.008164327 -0.023508865 -0.07290754
000140 a0 6c 4f bd 1e 11 a9 3c 98 96 ac 3c c3 55 75 bd
       -0.050640702 0.020638045 0.021067902 -0.059896242

fc3.weight f4 [10, 84]
000000 c8 4b 7f 3c e8 ec 12 3e a5 d1 3e 3d 1e b3 4c 3d
       0.0155820325 0.14348185 0.04658665 0.049975507
000010 7d c6 0a bd a2 89 a5 3d 71 25 a5 bd 06 1a a9 3d
       -0.0338807 0.08082892 -0.08063782 0.08256917
000020 0a 09 ce 3c 4c a1 59 bd c1 67 98 bd 86 57 fe bc
       0.025150795 -0.05313234 -0.074416645 -0.031047594
000030 b8 65 7a 3c 8e dd ee bc 83 3b 98 bd e6 58 d2 3d
       0.015283041 -0.02915838 -0.07433226 0.10270862
000040 b3 87 59 3c 09 bf a3 3d a6 ae c8 3d 75 45 be bd
       0.013276982 0.079954214 0.097989365 -0.092905916
000050 61 00 e3 bc e4 bf 6e bd 40 1c d4 3d 55 69 3e 3d
       -0.027710142 -0.05828847 0.10356951 0.04648717
000060 7f ec df bd 34 25 e4 3d 2a 38 c1 3d 4d 76 71 3d
       -0.1093378 0.111399084 0.094345406 0.05895071
000070 aa 51 de bd 97 69 9e bd be 1f 93 3d d6 05 ad 3d
       -0.1085542 -0.077349834 0.07183789 0.08448379
000080 3c cd 36 bd 09 48 ce 3c bd 52 c9 3c 56 6d c4 3d
       -0.04462932 0.025180833 0.024575585 0.09591167
000090 33 01 3f 3d e3 2c a7 bd 32 6c a6 bd 1a 14 06 bb
       0.046632003 -0.08162858 -0.08126105 -0.0020458759
0000a0 cd 7f e3 bd b7 14 76 bd 04 2e e4 bd c3 a6 ba bd
       -0.111083604 -0.06007835 -0.11141589 -0.091138385
0000b0 82 02 54 3d 18 9b 84 bd fc a2 c9 bc eb a3 63 bd
       0.051760204 -0.06474894 -0.02461385 -0.055576246
0000c0 6c 4a bd 3d cc 18 a0 bd 31 8d 8f 3c 60 c2 c5 3c
       0.092427105 -0.0781723 0.01752338 0.024140537
0000d0 90 2e 83 bd 47 ef a0 bd 03 1d e8 bd 10 d2 73 3d
       -0.064053655 -0.078581385 -0.113336585 0.059526503
0000e0 41 80 4e 3d 4b 2c 8c bd b1 57 56 b8 f7 d6 0d 3e
       0.05041528 -0.06844386 -5.1103245e-05 0.13851534
0000f0 60 f7 24 bd 41 aa 00 3c 16 c0 66 3c ea 0f 3c 3e
       -0.040274978 0.007853092 0.014083883 0.18365446
000100 a4 05 c1 bd 33 46 93 3d 48 50 7b 3c 63 f5 b8 bc
       -0.09424904 0.07191124 0.015338965 -0.022577947
000110 4f 25 a3 bc 82 c1 36 3d 80 44 99 3d 4d 15 2f bc
       -0.019915251 0.044618137 0.074837685 -0.010686231
000120 d4 3f 25 3e 1e 1f 69 bc cb bc c5 bd aa 9c 35 3e
       0.1613763 -0.01422861 -0.0965515 0.17735544
000130 d4 75 a2 3c a5 6b 85 3d 4b a6 3a 3c 26 20 39 3e
       0.019831575 0.06514672 0.011392186 0.1807867
000140 ac 8c 15 bd cb 1b 84 bd d2 d7 b1 bd bf c0 06 be
       -0.03651111 -0.064506136 -0.086837426 -0.13159464
000150 42 8b d3 bd ec 0a cc bd ab c3 a3 bd a9 e6 91 bd
       -0.10329296 -0.09963021 -0.07996305 -0.07124073
000160 86 b5 57 bd 70 6f 97 bd f9 24 89 bd f1 88 b2 bd
       -0.05266335 -0.07394302 -0.06696505 -0.08717526
000170 7d 7e 33 bd 25 55 90 bd 5b ef 79 bd 98 63 bd bd
       -0.0438218 -0.0704749 -0.061019283 -0.092475116
000180 97 ab 82 bd de 24 13 be 4b 0b e0 bc d6 67 e9 3d
       -0.063803844 -0.14369532 -0.027349135 0.11396758
000190 4b 58 a3 3d 5f d5 ab 3d 55 58 e4 3d b6 7d 99 3d
       0.07975825 0.08390307 0.111496605 0.074946806
0001a0 66 6c 5f bd 86 45 9b 3d 9e e1 ea 3d 8f 57 cd 3c
       -0.054546736 0.0758162 0.11468814 0.025066165
0001b0 b2 f7 9b 3d 05 bc 5d 3e 5e 36 8f 3c 30 69 64 3d
       0.076156035 0.21653755 0.017481979 0.055764377
0001c0 4e d4 99 3d 07 c5 3a 3d 87 30 d2 bd a3 16 b9 bd
       0.07511197 0.045598056 -0.10263162 -0.09037521
0001d0 55 12 e5 3d d3 25 4d 3d 94 5a 0a 3b 91 5a f4 bb
       0.11185137 0.0500849 0.0021111118 -0.0074570854
0001e0 e8 91 d6 bd 88 d1 0c bd a8 0b 49 3e 55 04 92 3b
       -0.10477048 -0.034379512 0.19633353 0.004456083
0001f0 e8 57 4c bd 5e 29 d9 3d ce 48 3d bc e1 94 13 3e
       -0.04988852 0.10603593 -0.0115530025 0.14412262
000200 6d c9 28 38 71 bf 0c be 8f 10 ba 3d 8d 37 d7 3d
       4.0241914e-05 -0.13744904 0.090851896 0.10508642
000210 55 74 85 3b 62 0a 01 3e e5 b4 80 3d ae 29 3b bd
       0.0040727057 0.12601617 0.06284503 -0.045694046
000220 70 9f 9d bd 90 47 4e 3c 3d 0f 94 bc 7f 3d fb bb
       -0.07696426 0.012590304 -0.018073672 -0.007667243
000230 e5 23 a4 bd 80 3a 4a 3c d6 fb 8b bd 61 e8 b9 3d
       -0.08014659 0.012343049 -0.06835143 0.09077526
000240 de b3 72 bc 6d 48 c8 bd 54 43 a0 bd d4 05 4a 3c
       -0.0148133915 -0.09779439 -0.07825342 0.012330491
000250 10 63 e6 bc fd fe 3a 3d 8a 4c 25 3e d8 ff 97 bd
       -0.028123409 0.045653332 0.16142479 -0.07421845
000260 17 e0 08 3d 83 43 c5 3d 35 c7 a6 bd b0 08 cc 3d
       0.033416834 0.096320175 -0.081434645 0.099625945
000270 bf f4 83 bd b2 2d 18 be a2 c0 de 3d 82 fe 91 3c
       -0.06443166 -0.14861181 0.108765855 0.017821554
000280 53 d3 9d 3c 65 fe 64 bd e2 13 66 bd d1 63 59 3d
       0.019265806 -0.055906672 -0.056171305 0.053073708
000290 1b 0a c8 bd 90 e1 08 3e 70 6a 33 bd 23 79 f8 3c
       -0.097675525 0.13367295 -0.04380268 0.0303312
0002a0 3a 25 ba bd 6c a7 50 3e 8f b5 b7 bd f2 1d 20 3c
       -0.09089132 0.20376366 -0.089701764 0.0097727645
0002b0 d0 6d 54 3d 80 89 f8 3d d9 0c 6c 3d ae 4f 0f bd
       0.051862538 0.12135601 0.05762944 -0.034988098
0002c0 86 80 95 3d 70 ea aa 3d c3 f8 f5 3c d6 30 02 bc
       0.072999045 0.08345497 0.030025845 -0.007946214
0002d0 46 1e f1 b8 68 b8 41 bc 8c 2b 02 3d b9 75 7d bc
       -0.000114974144 -0.011823751 0.03177981 -0.015469962
0002e0 d4 70 83 3c de 80 5a 3c b8 69 ae bc a2 f6 6d 3e
       0.016045012 0.013336388 -0.021290645 0.23238614
0002f0 63 8c 61 3d af 5d 45 3d 6d 51 9a 3d a5 19 30 3d
       0.055065524 0.048185047 0.07535062 0.042993207
000300 23 5b e7 3c 5a 00 10 bd df 74 3c bc 14 c5 83 3d
       0.0282417 -0.035156585 -0.011502474 0.06434074
000310 87 64 92 bd 3d 6e 67 bd 06 bb ba 3d e3 9f d6 3a
       -0.0714808 -0.056501616 0.09117703 0.0016374554
000320 56 ae 90 3d de 6e 78 3d 31 be 1d 3e 73 95 a2 bd
       0.07064502 0.060652606 0.15404584 -0.079386614
000330 fc 4c 32 3d ed 13 b1 bc fa aa c1 bd 64 f2 1d ba
       0.04353045 -0.021615947 -0.09456439 -0.0006025194
000340 ea 5f d9 bd e9 4b 28 3e 64 d2 db 3d e5 59 dc b8
       -0.10613997 0.16435207 0.10733488 -0.00010507162
000350 64 f7 c9 3d 0b a9 ac bd 85 21 ba 3d ef 32 26 bd
       0.09861639 -0.0843068 0.090884246 -0.040575918
000360 bf 16 aa bd d0 54 ce 3c 6a 70 ad 3d f1 82 89 3c
       -0.0830512 0.025186926 0.08468707 0.01678607
000370 75 00 86 bd 2e 10 88 bd a8 44 8d bd cc 9f fc bd
       -0.06543056 -0.06643711 -0.06897861 -0.12335166
000380 39 27 95 bc a4 24 de bd 7c ce c3 3d 1b 51 50 3d
       -0.01820718 -0.108468324 0.09560868 0.0508586
000390 25 91 90 3c 25 63 2a 3d 43 66 0b 3d d7 10 1e be
       0.017647335 0.041598458 0.03403307 -0.15436111
0003a0 6b 90 b4 bd 26 3c b0 bd 30 e0 fa bd 43 e4 8e bc
       -0.08816608 -0.086052224 -0.122497916 -0.017442828
0003b0 04 2c a0 bd ab d7 2a 3d 6c 90 02 3d 4e 51 d1 3d
       -0.07820895 0.041709583 0.031876013 0.10220586
0003c0 17 9f ca 3c a1 9a 21 3e 12 b8 1b bd 7c 46 71 bd
       0.024734063 0.15781642 -0.03801734 -0.05890511
0003d0 d1 8f 6c bd 45 5e ae 3c 8c ca 93 bd fc 0e cf 3b
       -0.05775434 0.021285186 -0.07216367 0.006318925
0003e0 d9 db cd 3d 6c 00 ff bd 13 a6 b4 bd 07 34 a5 bd
       0.10051698 -0.12451252 -0.08820739 -0.08066564
0003f0 44 ae a6 bd 07 03 0f be c5 7e f6 bd fc f9 be bd
       -0.08138707 -0.13965999 -0.12035898 -0.093250245

fc3.bias f4 [10]
000000 c3 18 1e 3d c2 4d 40 3d b9 c9 2b 3d 05 ad e8 3d
       0.038597833 0.046949156 0.041940425 0.11361126
000010 de 8c dc 3d 0c 34 80 3d 3d 24 ab 3d 21 0f fa 3d
       0.10769056 0.06259927 0.08356521 0.12209917
000020 8d 6a 5d 3d 11 88 dc 3d
       0.054056693 0.1076814
